Torch/model.pt (torch_old, 249924 bytes, 10 tensors)

conv1.weight f4 [6, 3, 5, 5]
0	0x3d8fec34	0.07027474
1	0xbc2884c8	-0.010285564
2	0x3c51e040	0.012809813
3	0xbdce1443	-0.10062458
4	0x3debab1c	0.11507246
5	0xbdc60898	-0.09669608
6	0xbdc93a52	-0.09825577
7	0xbca07000	-0.019584656
8	0x3d4173a8	0.04722944
9	0xbdd16db4	-0.10226002
10	0xbd66f8e5	-0.056389708
11	0x3ce91db0	0.028456539
12	0xbd8a2d29	-0.06746895
13	0x3cdd4098	0.02700834
14	0x3dc7f29a	0.097630695
15	0x3ddd5282	0.10806753
16	0x3d715240	0.05891633
17	0xbcc458e4	-0.023968168
18	0x3c145600	0.009053707
19	0xbd09dbda	-0.033656932
20	0x3de481ac	0.111575454
21	0x3da3e77a	0.08003135
22	0xbdc793ef	-0.09745013
23	0x3c945730	0.01810798
24	0xbc7d2790	-0.015451327
25	0x3b114500	0.0022166371
26	0xbd147818	-0.036247343
27	0xbdc6cd99	-0.097071834
28	0xbd2ea6d0	-0.042639554
29	0x3cfacca0	0.03061515
30	0xbdcb13ea	-0.09915908
31	0x3d799c40	0.060940027
32	0x3d553ddc	0.052060947
33	0xbdca0dfc	-0.098659486
34	0xbc92b0b4	-0.017906524
35	0xbddf261c	-0.10895941
36	0xbcc81950	-0.024426132
37	0x3c4b1050	0.012394026
38	0x3bb612c0	0.0055564344
39	0xbc82d9c0	-0.015972972
40	0xbd313d5e	-0.043271415
41	0xbd1c8eac	-0.038222
42	0xbda3f30e	-0.080053434
43	0xbcdc0b24	-0.026860781
44	0x3d0293c8	0.031879216
45	0x3d705294	0.058672503
46	0xbda51007	-0.080596976
47	0xbd821f66	-0.06353645
48	0x3dcf224e	0.10113965
49	0x3dba61a2	0.09100653
50	0x3be6ed00	0.0070472956
51	0x3deae810	0.11470044
52	0xba09c600	-0.00052556396
53	0xbdabd5a6	-0.083903596
54	0x3d83d3a8	0.064368546
55	0xbdad1ae9	-0.08452398
56	0xbdcc2a8a	-0.09969051
57	0xbde3af2b	-0.11117395
58	0x3d5a4148	0.053284913
59	0x3de7ab96	0.11312024
60	0x3d843906	0.06456189
61	0x3d93034e	0.07178365
62	0xbd768ddd	-0.060193885
63	0x3ddb4928	0.10707313
64	0x3de7b7a0	0.113143206
65	0xbc9d33dc	-0.019189768
66	0xbcc5e3a0	-0.024156392
67	0xbc61fb40	-0.013792813
68	0x3d62669c	0.055273637
69	0xbdc6f008	-0.09713751
70	0x3dcebd06	0.10094647
71	0x3cce13d8	0.025155947
72	0x3d840998	0.06447142
73	0x3da7c6ac	0.081921905
74	0x3d84ea46	0.064899966
75	0x3ddd0a70	0.107930064
76	0x3d8562da	0.06512995
77	0xbdcb7d96	-0.09936063
78	0xbdb74d25	-0.08950261
79	0x3de7ed36	0.11324541
80	0x3ce40d80	0.027838469
81	0x3d7fa260	0.062410712
82	0xbdc4c626	-0.09608106
83	0x3d48adbc	0.04899381
84	0x3ce3efc8	0.027824298
85	0xbc8254e4	-0.01590962
86	0xbdcff106	-0.101533934
87	0xbd952b18	-0.0728361
88	0xbd94a17f	-0.072573654
89	0x3dc57816	0.09642045
90	0xbcb05f14	-0.021529712
91	0x3ccfa560	0.025347412
92	0xbc1bd750	-0.009511784
93	0x3cbf6568	0.023363784
94	0xbde9bfab	-0.11413511
95	0x3daa07ca	0.08302267
96	0x3cb8de98	0.022567078
97	0x3bf7d420	0.007563129
98	0xbd08fc42	-0.033443697
99	0x3dbea6d6	0.09309165
100	0xbd0cc92e	-0.034371547
101	0x3dad7bc2	0.084708706
102	0xbbfa8220	-0.0076449066
103	0xbcab9f7c	-0.020950072
104	0xbdc1f487	-0.09470468
105	0x3da23a8a	0.07921322
106	0xbdd2d872	-0.1029519
107	0x3da9a10c	0.082826704
108	0x3d9dff36	0.07714693
109	0x3d2559d4	0.04036887
110	0x3d3224d8	0.04349217
111	0x3cd7f428	0.02636154
112	0x3da7eede	0.08199857
113	0x3d701bc4	0.05862023
114	0x3d43925c	0.047747
115	0xbcd506a8	-0.02600415
116	0xbd0a6846	-0.03379085
117	0x3daebf7e	0.08532618
118	0xbdc9273e	-0.09821938
119	0xbd487c4e	-0.04894667
120	0x3d98ab9a	0.074546054
121	0xbc2b82d8	-0.010468207
122	0xbd22cf9c	-0.039748773
123	0x3db05e1e	0.086117014
124	0xbc311428	-0.010808028
125	0xbc3f7bc0	-0.011687219
126	0xbd94efcb	-0.072722994
127	0x3d8b3dbc	0.06798884
128	0x3c2de740	0.010614216
129	0x3d1de4dc	0.038548335
130	0x3ca12900	0.01967287
131	0xbd890ba0	-0.066916704
132	0x3d909d6a	0.07061274
133	0x3dc4afc8	0.0960384
134	0x3d8c66a2	0.06855513
135	0x3ccf9de0	0.025343835
136	0xbd0e8552	-0.034795113
137	0x3cb4a358	0.022050545
138	0xbdd861f3	-0.10565557
139	0xbdad4fb2	-0.08462466
140	0x3da56aee	0.08077036
141	0x3d954698	0.07288855
142	0x3d11374c	0.035453126
143	0x3be19d30	0.0068851933
144	0xbc902430	-0.01759538
145	0x3c41dd10	0.011832491
146	0x3d200020	0.03906262
147	0xbdde3341	-0.1084962
148	0xbdd1908a	-0.10232647
149	0xbd9285d4	-0.07154432
150	0xbb907a90	-0.004409142
151	0xbdbaca68	-0.09120637
152	0x3d4fbbbc	0.050716147
153	0xbd93e890	-0.07222092
154	0xbdb1848c	-0.086678594
155	0x3c904048	0.017608777
156	0xbda9147c	-0.0825586
157	0xbdb62016	-0.08892839
158	0xbd41b31c	-0.047289953
159	0x3d903faa	0.07043393
160	0xbcc7cf78	-0.024390921
161	0xbd0ce238	-0.034395427
162	0xbd44fc44	-0.04809214
163	0xbd965690	-0.07340729
164	0xbd5f9b66	-0.05459156
165	0x3d504bc0	0.05085349
166	0xbd129f4a	-0.03579644
167	0x3c26a210	0.010170475
168	0x3d08cd34	0.033398822
169	0xbcbba150	-0.022904068
170	0xbd84203d	-0.064514615
171	0xbdac1b82	-0.08403684
172	0xbd9e8ce0	-0.077417135
173	0xbd212ac4	-0.039347425
174	0xbc5d0ce0	-0.013491839
175	0xbd8fa745	-0.07014326
176	0xbba4fc50	-0.005034961
177	0xbdbb1fb6	-0.09136908
178	0x3a2b5900	0.00065363944
179	0x3d83d944	0.064379245
180	0xbdde6901	-0.10859872
181	0x3d33ed4c	0.043927476
182	0x3d9f6e5c	0.07784721
183	0xbd6a4614	-0.057195738
184	0xbd70ae9a	-0.058760263
185	0xbc952d60	-0.018210113
186	0xbd735844	-0.05941035
187	0x3c9ed588	0.019388929
188	0xbd896d91	-0.06710351
189	0x3d8bfe3c	0.06835601
190	0xbd0092ba	-0.03138993
191	0x3ddb404a	0.107056215
192	0xbde4e158	-0.111757934
193	0x3d8ff242	0.07028629
194	0x3d93b03c	0.072113484
195	0xbcacc648	-0.021090642
196	0xbdb20836	-0.08692972
197	0xbdc5a6a7	-0.09650927
198	0xbd85afa8	-0.065276444
199	0x3c0a6ff0	0.00844954
200	0x3da79c9e	0.08184169
201	0xbcc50cf8	-0.024054036
202	0x3d95de18	0.07317752
203	0xbda0e761	-0.07856632
204	0xbdbdea54	-0.0927321
205	0x3bd05c60	0.006358668
206	0x3d2d9a8c	0.042383716
207	0xbd3b7936	-0.045769893
208	0xbd24143a	-0.040058352
209	0xbddf1ea6	-0.108945176
210	0x3de8e3e4	0.11371592
211	0xbd44cdc8	-0.04804781
212	0x3c9a6040	0.018844724
213	0xbd27c688	-0.04096082
214	0x3d69daac	0.057093307
215	0xbde4416d	-0.111452915
216	0x3dc2113e	0.09475945
217	0x3d8fb75e	0.070173964
218	0x3d8253f8	0.06363672
219	0x3d35d1a0	0.044389367
220	0x3c16c470	0.009202108
221	0xbdc1f5d0	-0.09470713
222	0x3daef5d4	0.08542982
223	0x3cd2ddf0	0.025740594
224	0x3ca4a760	0.020099342
225	0xbcfe2ab0	-0.031026214
226	0xbcbb2674	-0.022845484
227	0xbc941d98	-0.018080518
228	0xbd1df4f2	-0.038563676
229	0xbdba03f3	-0.090827845
230	0x3a940e00	0.0011295676
231	0xbda3d10a	-0.079988554
232	0xbdb53f1a	-0.08849926
233	0x3d0e6a84	0.03476955
234	0x3d87948a	0.066201285
235	0x3cf18c60	0.029485881
236	0xbad9a580	-0.0016605109
237	0x3d3a126c	0.045427725
238	0xbd7e38ed	-0.062066007
239	0x3d39e32c	0.045382664
240	0x3da0b1ba	0.07846399
241	0x3cb15648	0.021647587
242	0x3d8f91ac	0.070102066
243	0x3dbaa0a0	0.09112668
244	0xbc492380	-0.01227653
245	0x3d95876c	0.0730122
246	0xbd18e25c	-0.037325248
247	0x3ca04a58	0.0195667
248	0xbcb7e318	-0.022447154
249	0x3d7b1498	0.061298937
250	0x3ca4dba0	0.020124257
251	0x3dde7e22	0.10863902
252	0x3d26374c	0.04058008
253	0x3d8d4f1c	0.068998545
254	0xbdd94619	-0.10609073
255	0x3d9d9c68	0.07695848

conv1.bias f4 [6]
0	0x3ce7ecb0	0.028311104
1	0xbde482c6	-0.111577556
2	0x3d270f90	0.040786326
3	0xbd1314d2	-0.035908528
4	0xbcc76460	-0.024339855
5	0x3cb98f30	0.022651285

conv2.weight f4 [16, 6, 5, 5]
0	0x3cbe5664	0.023234554
1	0x3d489e80	0.048979282
2	0x3d8a8e3a	0.06765409
3	0x3d0d594e	0.034508996
4	0x3d979164	0.07400778
5	0xbd79b4cc	-0.060963437
6	0x3cf24034	0.02957163
7	0xbb0bff80	-0.0021362007
8	0x3c8f7d30	0.017515749
9	0x3d85c9ba	0.06532617
10	0x3d22c372	0.039737172
11	0xbbdd3b50	-0.0067514554
12	0xbc996530	-0.018725008
13	0x3d5a023c	0.053224787
14	0xbc9fd056	-0.019508522
15	0xbbe1c0f0	-0.006889455
16	0x3d3f5938	0.046715945
17	0xbd376713	-0.044776034
18	0xbd138ee4	-0.036024943
19	0x3d5329ec	0.05155365
20	0xbc9aa51c	-0.018877558
21	0x3d88e44a	0.06684168
22	0xbba57610	-0.0050494745
23	0x3d8b346e	0.067971095
24	0x3d965a72	0.0734147
25	0xbd8fd425	-0.07022885
26	0x3cff4a04	0.031163223
27	0xbda577df	-0.08079504
28	0x3b943780	0.0045232177
29	0xbd946e3d	-0.07247589
30	0xbc6dec68	-0.014521696
31	0xbd3a7393	-0.045520376
32	0x3d470938	0.048592776
33	0xbc932448	-0.017961636
34	0xbb8d31d0	-0.0043089166
35	0xbd3d7718	-0.046256155
36	0xbd9d301e	-0.07675193
37	0xbda44984	-0.080218345
38	0x3d7500c0	0.05981517
39	0x3d3755d8	0.0447596
40	0xbd1ba8a8	-0.03800264
41	0x3cf843e0	0.030305803
42	0x3d5eb944	0.0543759
43	0x3d0fa8b6	0.035073005
44	0x3d80c12a	0.06286843
45	0xbcc9d67a	-0.024638403
46	0xbd07bd8b	-0.033139747
47	0xbd8bbd85	-0.06823257
48	0x3bae1be0	0.0053133816
49	0xbd6b630e	-0.057467513
50	0x3be92750	0.007115282
51	0x3d114eaa	0.03547541
52	0x3c2f0468	0.010682203
53	0xbc017840	-0.007902205
54	0x3a3e3000	0.00072550774
55	0xbd230be3	-0.039806258
56	0xbd8f254e	-0.06989537
57	0x3d8680de	0.06567548
58	0x3cdb8e34	0.026801206
59	0x3d2a79b2	0.041619964
60	0xbd6ff8d9	-0.05858693
61	0x3cdf021c	0.027222686
62	0x3cf67254	0.030083813
63	0x3c815858	0.015789196
64	0xbd4bed02	-0.049786575
65	0xbd17513b	-0.0369427
66	0x3d0768d8	0.03305897
67	0xbb6cecc0	-0.0036151856
68	0x3d415268	0.04719773
69	0xbd8d2d89	-0.06893451
70	0x3d8c6f1c	0.0685713
71	0xbc6f1d70	-0.014594421
72	0xbbf9bf70	-0.007621698
73	0xbcb34e28	-0.021887854
74	0x3cfbf164	0.030754752
75	0x3cd4a734	0.025958635
76	0x3c07caa8	0.008288063
77	0xbd4219b5	-0.047387797
78	0x3d8380ea	0.06421073
79	0xbd968388	-0.07349306
80	0x3cba65fc	0.022753708
81	0x3d98c150	0.074587464
82	0xbd63f56e	-0.055653982
83	0xbd498fcf	-0.049209412
84	0x3cdefde4	0.027220674
85	0xbcab0534	-0.020876504
86	0x3d7a2d44	0.061078325
87	0xbc4ef440	-0.012631476
88	0xbaf00740	-0.0018312708
89	0xbd88014e	-0.06640874
90	0xbd6e035e	-0.05810868
91	0x3cb2bea4	0.02181942
92	0xbcde3cfa	-0.027128685
93	0xbd212ab2	-0.039347358
94	0x3d610d50	0.054944336
95	0xbd99a910	-0.07502949
96	0xbaad9500	-0.0013243258
97	0xbd8ad25e	-0.067784056
98	0xbd6a5921	-0.057213906
99	0x3da2e31e	0.079534754
100	0xbd897187	-0.06711107
101	0x3d8e1158	0.06936902
102	0x3da1e138	0.07904285
103	0x3d15df10	0.036589682
104	0xbd7f27bd	-0.062293757
105	0xbd63944a	-0.05556134
106	0x3d4d8cac	0.050182983
107	0xbc944708	-0.018100277
108	0xbcebca78	-0.028783068
109	0xbd352ed8	-0.044234127
110	0xbd85baea	-0.06529792
111	0x3c4a96c0	0.012365043
112	0xbc297cf8	-0.010344736
113	0x3d5f89a8	0.05457464
114	0x3b0226a0	0.0019859448
115	0xbcc908f2	-0.024540398
116	0x3c155e00	0.00911665
117	0xbd624999	-0.05524597
118	0xbd45f587	-0.048329856
119	0x3cdfb890	0.027309686
120	0x3d08a1f8	0.03335759
121	0xbd556d10	-0.052105963
122	0x3c95af84	0.018272169
123	0x3cc324e4	0.023821302
124	0xbd9fe633	-0.07807579
125	0xbd8e2740	-0.0694108
126	0x3d4b30a0	0.04960692
127	0xbc5be750	-0.013421848
128	0xbd180130	-0.037110507
129	0xbd2dcebd	-0.04243349
130	0xbd140833	-0.036140632
131	0xbd85d8d9	-0.06535501
132	0x3d19fbb4	0.03759356
133	0x3d34cbe0	0.044139743
134	0xbd640d2e	-0.05567663
135	0x3ca30104	0.019897945
136	0x3b1dc4e0	0.0024073645
137	0x3d3080b2	0.043091483
138	0xbd288587	-0.041142967
139	0x3cd665bc	0.026171558
140	0x3d346230	0.04403895
141	0xbc34fc08	-0.011046417
142	0xbd3d2538	-0.046178073
143	0x3c26a1c8	0.010170408
144	0x3ca86510	0.020556003
145	0xbd8e0d31	-0.0693611
146	0x3d9029e4	0.0703924
147	0x3d474e18	0.04865846
148	0x3d3ce5d4	0.04611762
149	0xbc21f3d0	-0.00988479
150	0x3cb61098	0.02222471
151	0xbd99b07d	-0.075043656
152	0xbda6ca64	-0.08144072
153	0xbd6b336e	-0.057422094
154	0x3d7f6810	0.0623551
155	0x3c734e68	0.0148502365
156	0x3d461024	0.048355237
157	0x3d695db4	0.056974128
158	0xbd388237	-0.045046058
159	0xbd3c0962	-0.045907386
160	0x3da4b1a0	0.08041692
161	0x3ca379ec	0.019955598
162	0xbd846c95	-0.06466023
163	0x3d92c494	0.071664006
164	0x3d4b159c	0.049581155
165	0xbd04e220	-0.032442212
166	0x3d7952fc	0.060870156
167	0xbc24dac0	-0.01006192
168	0xbc10cd68	-0.008838035
169	0xbd8255c7	-0.06364017
170	0x3c87b428	0.016565397
171	0x3d85e870	0.065384746
172	0xbda5db36	-0.08098452
173	0xbb9f6ad0	-0.004865028
174	0x3d3e9160	0.04652536
175	0x3d21ce7e	0.039503567
176	0xbbe5d1d0	-0.007013537
177	0xbd9a99c4	-0.0754886
178	0xbd498c9b	-0.049206357
179	0xbd4cc6bf	-0.049994227
180	0xbd274930	-0.04084128
181	0x3d4697cc	0.04848461
182	0xbd41cfdb	-0.047317367
183	0x3d70476c	0.058661863
184	0x3d9186e0	0.071058035
185	0xbb2554c0	-0.0025227517
186	0x3d723c84	0.059139743
187	0xbd2e6106	-0.042572998
188	0x3b25fd60	0.0025328025
189	0x3c6e39d8	0.014540158
190	0xbd4f1490	-0.05055672
191	0x3ca3d524	0.019999094
192	0x3c776438	0.015099578
193	0xbd817d4f	-0.06322729
194	0x3d1fb8c0	0.03899455
195	0xbd71e969	-0.059060488
196	0x3d970f06	0.07375912
197	0xbbb1f640	-0.0054309666
198	0x3d390ea4	0.045179978
199	0xbd65e318	-0.056124777
200	0x3d76c580	0.060246944
201	0x3c8be868	0.017078593
202	0x3d462f68	0.048385054
203	0x3d7d6580	0.061864376
204	0xbd13d565	-0.03609218
205	0xbd6bd8cd	-0.057579804
206	0xbd830788	-0.06397921
207	0x3cd6a014	0.026199378
208	0x3ce37c60	0.027769268
209	0x3d83139c	0.064002246
210	0xbd8e957c	-0.06962106
211	0x3d0c2c7c	0.03422211
212	0xbd93e7b5	-0.07221929
213	0xbd766a3e	-0.060159914
214	0x3d645a88	0.0557504
215	0x3d12b874	0.03582044
216	0xbd4a7cf6	-0.04943558
217	0x3d609a80	0.054834843
218	0xbcfd1ade	-0.0308966
219	0xbd42f882	-0.047600277
220	0x3d2e5cd4	0.042568997
221	0x3d922534	0.07136002
222	0x3d907c24	0.07054928
223	0xbd623124	-0.055222645
224	0xbbc227c0	-0.0059251487
225	0x3b63b060	0.003474258
226	0xbda1b44c	-0.07895717
227	0xbd921256	-0.071324036
228	0x3d3ce954	0.046120957
229	0xbce4e79e	-0.027942475
230	0xbd02eab2	-0.031962104
231	0xbcf2a0e0	-0.029617727
232	0x3d8b659a	0.06806488
233	0xbca2696a	-0.019825656
234	0x3cbc5ff0	0.022994965
235	0x3d4dd9f4	0.050256684
236	0xbc9e9ca0	-0.019361794
237	0xbc3d83f0	-0.011567101
238	0x3da57bde	0.080802664
239	0xbcc85912	-0.024456535
240	0xbcf235d6	-0.029566687
241	0x3d4dad20	0.050213933
242	0xbca395b4	-0.019968845
243	0x3d12f10a	0.035874404
244	0xbd78363a	-0.06059859
245	0xbda299fa	-0.07939525
246	0xbd58510c	-0.052811667
247	0xbd573b02	-0.05254651
248	0x3d1a7ab0	0.03771466
249	0xbcddfbb2	-0.027097557
250	0x3b856ff0	0.004072182
251	0xbcb3d972	-0.021954272
252	0x3b28e000	0.002576828
253	0x3d9912f6	0.0747432
254	0xbca18368	-0.01971598
255	0x3c19e2d8	0.009392463

conv2.bias f4 [16]
0	0xbc138b00	-0.009005308
1	0xbb5d2bc0	-0.0033748
2	0xbd2619d4	-0.040551975
3	0xbc98f378	-0.018670782
4	0x3c1a3270	0.009411439
5	0xbd13cd71	-0.036084596
6	0xbcf3cde0	-0.029761255
7	0xbad66e00	-0.0016359687
8	0xbbaec400	-0.0053334236
9	0x3c991eb4	0.018691398
10	0x3d484f1c	0.04890357
11	0x39b7d600	0.00035063922
12	0xbda1862e	-0.07886921
13	0x3d8b0822	0.067886606
14	0x3d0b41ce	0.033998303
15	0x3d4e0f04	0.05030729

fc1.weight f4 [120, 400]
0	0xbcdef277	-0.027215226
1	0x3cf756aa	0.030192692
2	0xbd0f261e	-0.03494846
3	0xbcf531a7	-0.029930903
4	0x3c96a5f2	0.018389676
5	0x3d40bc59	0.047054622
6	0x3d408f39	0.047011588
7	0x3c1b2054	0.009468157
8	0x3d1cf447	0.0383189
9	0x3c55fca4	0.0130607225
10	0xbbcdcc18	-0.0062804334
11	0xbd099628	-0.033590466
12	0x3cd3b016	0.0258408
13	0x3be76458	0.0070615225
14	0xbca652b3	-0.020303106
15	0xbb073200	-0.0020629168
16	0x3cb4104e	0.02198043
17	0xbd46be88	-0.04852155
18	0xbc1631b8	-0.009167127
19	0x3cdcd97e	0.026959177
20	0xbd3ff325	-0.04686274
21	0x3d2744bf	0.040837046
22	0xbcc3cb9d	-0.023900801
23	0xbcdba7f7	-0.02681349
24	0x3d373b29	0.044734154
25	0xbbc0ea98	-0.0058873408
26	0x3d28e527	0.04123416
27	0xbd00e9ac	-0.031472847
28	0xbcc741b7	-0.024323327
29	0x3bba6c50	0.0056891814
30	0x3c1cdde8	0.009574391
31	0x3cdbd4f2	0.026834939
32	0x3d1cab8d	0.03824954
33	0x3cb57dfa	0.022154797
34	0xbd2ec628	-0.042669445
35	0xbbeeb6d0	-0.0072849765
36	0xbd1dbcb0	-0.038510025
37	0xbc9b0400	-0.018922806
38	0x3d267d73	0.04064698
39	0xbb53ce20	-0.0032318905
40	0xbd4aac23	-0.04948057
41	0xbd29f04b	-0.041488927
42	0x3ca04822	0.019565646
43	0xbd154b6a	-0.036448874
44	0x3b4e7620	0.0031503513
45	0xbcc8dac0	-0.02451837
46	0x3cb92d76	0.022604685
47	0xbce0bf3d	-0.02743494
48	0xbc6453ec	-0.013936024
49	0x3d1d9947	0.038476255
50	0xbd2a0183	-0.041505348
51	0xbd05c598	-0.032659143
52	0x3ce9c92a	0.028538305
53	0x3c55f52c	0.013058942
54	0x3be04f58	0.006845396
55	0x3d30ab6d	0.043132234
56	0xb9ed8f00	-0.00045310706
57	0xba0ccb80	-0.00053709
58	0xbd369a25	-0.044580597
59	0x3d25012d	0.040284324
60	0xbc99efb3	-0.018791055
61	0x3d36cfaf	0.044631656
62	0xbcab814a	-0.020935673
63	0xbcb1841d	-0.021669442
64	0x3d0b0fbf	0.033950564
65	0xbb326800	-0.0027222633
66	0xbd1ddac5	-0.038538713
67	0x3c8b9ec2	0.017043475
68	0xbc8151c6	-0.015786063
69	0x3d08271f	0.033240434
70	0xbd268bfe	-0.04066085
71	0xbcee7fbd	-0.029113645
72	0xbce51f53	-0.027969038
73	0x3cdbac76	0.026815634
74	0x3cacdbd2	0.021100912
75	0x3ca25352	0.01981512
76	0xbd1fa3b8	-0.038974494
77	0xbd201302	-0.039080627
78	0x3c98406a	0.018585403
79	0x3abb4f40	0.0014290586
80	0xbc7cca18	-0.015429042
81	0xbce2a01d	-0.027664239
82	0x3c7788a4	0.015108261
83	0x3cb3e906	0.0219617
84	0xbd248f6a	-0.040175833
85	0xbd33e768	-0.043921858
86	0x3c9ce4a2	0.01915199
87	0x3d0e2163	0.03469981
88	0x3d3309a1	0.043710355
89	0xbc9f9cbd	-0.019483918
90	0x3cba8eae	0.022773113
91	0x3b85f6c0	0.004088253
92	0xbd325d97	-0.043546285
93	0xbc820f2c	-0.015876375
94	0xbc2af82c	-0.010435145
95	0x3ca0d42e	0.019632425
96	0x3d046f6d	0.032332826
97	0xbcc8a297	-0.024491591
98	0x3c70ee14	0.0147052
99	0x3ccda656	0.02510373
100	0x3d49ad69	0.049237642
101	0xbcb59f3a	-0.022170652
102	0x3c6a1394	0.014286894
103	0xbbf30b00	-0.007417083
104	0xbbd2d4d0	-0.0064340606
105	0x3cb189ba	0.021672118
106	0xbcdffa23	-0.027340954
107	0xbcc88433	-0.0244771
108	0x3d490fd7	0.04908737
109	0xbd1fbf1a	-0.039000608
110	0x3d0812e7	0.03322115
111	0xbd39e3c0	-0.045383215
112	0x3c67ce5c	0.014148321
113	0xbcc00fa3	-0.023444956
114	0x3c5c3fbc	0.01344293
115	0xbd2e8a6a	-0.04261247
116	0x3cfd3aca	0.030911822
117	0x3caa0cee	0.020758118
118	0xbd09e8b0	-0.033669174
119	0xbd0462c6	-0.03232076
120	0x3ce14ba2	0.027501885
121	0x3af00aa0	0.0018313713
122	0xb8afd600	-8.384511e-05
123	0xbd420787	-0.04737046
124	0x3c71c7cc	0.014757108
125	0x3cce84c6	0.025209796
126	0x3d45652b	0.048192184
127	0x3d1b6899	0.03794155
128	0xbd03da50	-0.03219062
129	0x3b4ec2b0	0.0031549148
130	0x3d3ae1ef	0.045625623
131	0xbcc1f127	-0.02367456
132	0x3cd1b37e	0.025598284
133	0xbce8bb43	-0.028409606
134	0xbcd03e2d	-0.025420273
135	0xbd0d48e2	-0.034493335
136	0x3d0639f9	0.03277013
137	0xbd06875c	-0.032843933
138	0xbc573ec0	-0.013137519
139	0x3c946216	0.018113177
140	0xbc6ff080	-0.014644742
141	0xbc13e000	-0.009025574
142	0x3c828942	0.01593459
143	0x3adcb4a0	0.0016838498
144	0xbc817660	-0.015803516
145	0xbbc71b40	-0.0060762465
146	0xbc909dfc	-0.017653458
147	0xbcdd99b0	-0.027050823
148	0xbcca6610	-0.02470687
149	0xbd2f8908	-0.042855293
150	0x3d03bfc5	0.032165308
151	0xbc5bdcf8	-0.013419382
152	0x3d20bea1	0.039244298
153	0x3ca6ef82	0.020377878
154	0xbccd1d6d	-0.025038445
155	0xbd0abc72	-0.03387112
156	0xbd0e6f1e	-0.03477394
157	0xbd208742	-0.039191492
158	0xbc8ceef0	-0.017203778
159	0x3bc24bd8	0.0059294514
160	0x3b58c720	0.0033077672
161	0x3cfc4c6a	0.030798156
162	0x3d130ee7	0.035902884
163	0x3ccd4232	0.025055978
164	0xbd0220f0	-0.031769693
165	0xbc455938	-0.012045197
166	0x3d0321ad	0.032014538
167	0x3ce141d2	0.027497206
168	0xbc6d7c94	-0.014495034
169	0x3d46400b	0.04840092
170	0x3ca82b92	0.020528588
171	0xbc717398	-0.014737032
172	0xbd125a40	-0.0357306
173	0x3d34cb81	0.04413939
174	0x3d135c11	0.035976473
175	0x3c488558	0.012238823
176	0xbd234fb2	-0.039870925
177	0x3d0c77a9	0.034293804
178	0x3ced6092	0.028976712
179	0x3c8ba6b2	0.01704726
180	0xbd22045b	-0.039554935
181	0x3d027031	0.031845275
182	0x3d1134e1	0.03545082
183	0xbce92c8d	-0.028463626
184	0x3cfdcbe2	0.030981008
185	0xbd22e12b	-0.03976552
186	0xbc0cbed8	-0.008590423
187	0x3d17cfc3	0.03706337
188	0x3d1cb0dd	0.038254607
189	0xbcb0b36d	-0.021569932
190	0x3d25dec9	0.040495668
191	0xbafb7000	-0.0019183159
192	0xbc2e57a0	-0.010641009
193	0x3cb5ce0e	0.022192981
194	0x3c483854	0.012220461
195	0xbc92f8fc	-0.01794099
196	0x3ce7e6a2	0.028308216
197	0xbd099d94	-0.033597544
198	0x3c98a066	0.018631171
199	0xbc81f174	-0.015862204
200	0x3cd453ae	0.025918808
201	0xbb1b3280	-0.0023681223
202	0x3d2da651	0.04239494
203	0x3c550b64	0.013003204
204	0x3c52f8c4	0.012876693
205	0xbd102245	-0.035188932
206	0x3ba57350	0.0050491467
207	0x3d2b2785	0.041785736
208	0x3d175235	0.036943633
209	0xbc4eb828	-0.012617148
210	0xbc7fbacc	-0.015608501
211	0x3d2309bd	0.03980421
212	0xbc514500	-0.012772799
213	0xbcd8119a	-0.02637558
214	0x3d0643a5	0.032779355
215	0xbcaa0333	-0.020753479
216	0xba409ac0	-0.00073472783
217	0xbc85b830	-0.016323179
218	0xbcf0bb8a	-0.0293863
219	0x3d2ee297	0.04269656
220	0x3d0dbb21	0.03460229
221	0xbd2abc83	-0.041683685
222	0xbd19683d	-0.037452925
223	0xbd32e1ad	-0.043672252
224	0x3d0dd129	0.0346233
225	0xbd2bc0d3	-0.04193194
226	0x3c95259a	0.018206406
227	0xbce11540	-0.027475953
228	0xbc7b5720	-0.015340596
229	0x3bd3c890	0.006463118
230	0xbce9660a	-0.028491039
231	0xbabfa540	-0.0014621392
232	0x3be874d8	0.007094007
233	0xbd3cb925	-0.046075005
234	0x3bf534a8	0.0074830838
235	0xbd03adf4	-0.032148317
236	0xbc67ad34	-0.014140416
237	0xbc86bb46	-0.01644672
238	0x3cad17c2	0.021129493
239	0x3c2a8154	0.010406811
240	0xbc0f02d4	-0.008728702
241	0x3d052a21	0.03251088
242	0xbc2ca5d4	-0.010537583
243	0xbd308783	-0.043097984
244	0xbc302480	-0.01075089
245	0xbd21de3a	-0.039518572
246	0xbd102c35	-0.03519841
247	0xbca4ceca	-0.020118136
248	0x3d105561	0.035237674
249	0x3cdf1be6	0.027234983
250	0xbc21c778	-0.009874217
251	0x3d365521	0.04451478
252	0x3d45cd39	0.04829142
253	0xbb3e10a0	-0.0029001608
254	0xbc34e5d8	-0.011041127
255	0x3d1be4af	0.038059887

fc1.bias f4 [120]
0	0xbcd53713	-0.026027238
1	0xbcd23280	-0.025658846
2	0x3d329675	0.04360052
3	0x3ba27068	0.0049572475
4	0x3cc11562	0.023569766
5	0xbcfe05da	-0.03100865
6	0x3d490acf	0.049082574
7	0x3bf1ab50	0.0073751584
8	0x3be1db80	0.0068926215
9	0x3cc5f39e	0.024164017
10	0xbca9cca0	-0.020727456
11	0x3d2148f3	0.03937621
12	0xbcb399c7	-0.021923913
13	0xbbdb0790	-0.006684251
14	0x3ccc5d0e	0.024946716
15	0xbd4972f5	-0.049181897
16	0x3d3a01ad	0.045411754
17	0x3d05a463	0.032627475
18	0xbc4c1700	-0.0124566555
19	0xbc3409c0	-0.010988653
20	0x3c524604	0.012834076
21	0x3a0cfc00	0.0005378127
22	0x3d05542b	0.032550972
23	0xbd31ff0b	-0.04345612
24	0x3c75db4c	0.015005898
25	0x3d097e8d	0.033567954
26	0xbc2905ec	-0.010316353
27	0xbcc963e0	-0.024583757
28	0xbd1aa293	-0.0377527
29	0x3cc141c2	0.023590926
30	0x3c35f694	0.011106152
31	0xbd42d923	-0.04757036
32	0xbd2913f2	-0.041278787
33	0xbc8dc24a	-0.017304558
34	0x3d4a3137	0.04936334
35	0xba19ab80	-0.00058620423
36	0xbb5a4860	-0.00333073
37	0x3c89ff82	0.016845468
38	0xbc85c4dc	-0.016329221
39	0xbcd7d5ca	-0.02634706
40	0xbc0aaa74	-0.008463491
41	0xbce97630	-0.028498739
42	0x3cd93cba	0.026518214
43	0x3d4c7aed	0.04992192
44	0xbd11a6ce	-0.035559468
45	0xbc05a820	-0.00815776
46	0x3baa95d0	0.0052058473
47	0x3d3953f3	0.045246076
48	0xbd42e47f	-0.047581192
49	0x3d2d461f	0.0423032
50	0xbc86d1a0	-0.016457379
51	0x3ce17956	0.027523678
52	0xbce72f7a	-0.02822088
53	0x37ed3000	2.8274953e-05
54	0x3cca1d32	0.024672125
55	0xbd1ad7e6	-0.037803553
56	0x3d0c70d1	0.034287278
57	0x3bd4e530	0.006497048
58	0xbcfadb7a	-0.030622233
59	0xbaedb8a0	-0.0018136688
60	0xbb566f20	-0.0032720044
61	0x3b922f50	0.0044612065
62	0x3cf9a0b2	0.030472133
63	0x3cf7fbc6	0.030271422
64	0x3d07aa01	0.033121113
65	0x3d1ff653	0.039053272
66	0xbcd9e0ed	-0.02659651
67	0x3cbade42	0.022811059
68	0x3cd73a3a	0.026272882
69	0x3d17e5ad	0.03708427
70	0x3d45cf5f	0.048293468
71	0xbcf06c3d	-0.029348487
72	0xbcfc20d7	-0.030777378
73	0xbbf2ffb0	-0.007415734
74	0x3c9951fe	0.018715855
75	0xbc289b8c	-0.0102909915
76	0xbc39b9a0	-0.01133576
77	0xbcaad143	-0.020851737
78	0x3d4b65bd	0.049657572
79	0x3ce69ede	0.028151926
80	0x3ccb5892	0.024822507
81	0x3cce6ba2	0.025197808
82	0x3c652f6c	0.013988357
83	0xbcc0de37	-0.02354346
84	0x3c1b47f8	0.009477608
85	0x3c54740c	0.012967121
86	0xbd19ea86	-0.037577175
87	0x3d354fab	0.04426543
88	0x3d0375b9	0.03209469
89	0xbd2ecc27	-0.042675164
90	0x3c99f4b2	0.018793438
91	0x3c33d478	0.0109759495
92	0xbd1e3810	-0.038627684
93	0x3cee25b2	0.029070709
94	0xbd438fdf	-0.047744628
95	0x3cdd4482	0.027010206
96	0x3d1d21c9	0.0383623
97	0xbce27d27	-0.027647568
98	0x3cb13a0a	0.02163412
99	0x3c393ef8	0.011306517
100	0x3d1952d1	0.037432496
101	0xbd3e9970	-0.04653305
102	0xbc432494	-0.011910576
103	0xbd4524dd	-0.04813086
104	0xb9f33280	-0.00046386197
105	0xbcfe8333	-0.03106842
106	0xbcef9687	-0.029246582
107	0xbcac1013	-0.021003759
108	0x3d4a23c3	0.04935051
109	0x3d4b5e25	0.04965033
110	0xbd20f5eb	-0.039297026
111	0x3d318a2d	0.043344665
112	0xbcdcaf3d	-0.026939029
113	0x3d208379	0.039187882
114	0x3cdb9f8a	0.026809473
115	0xbcb1b6a0	-0.021693528
116	0xbd4b3c90	-0.049618304
117	0xbbedee68	-0.0072610863
118	0xbd432bc0	-0.047649145
119	0x3bf46c28	0.0074591823

fc2.weight f4 [84, 120]
0	0xbd1d55ce	-0.038411908
1	0x3d207d84	0.0391822
2	0x3db30556	0.08741252
3	0xbcaca778	-0.02107595
4	0x3d1fb4a0	0.038990617
5	0x3d94177c	0.07231042
6	0xbb9414a0	-0.0045190603
7	0x3db3ddc4	0.08782533
8	0x3db56e1c	0.08858892
9	0x3da6d4ea	0.08146079
10	0x3db8a292	0.09015383
11	0xbd9a10c0	-0.07522726
12	0xbd8708c0	-0.06593466
13	0xbd786c68	-0.06065026
14	0x3d58cef8	0.052931756
15	0xbd8baac3	-0.068196796
16	0xbd8e29c4	-0.0694156
17	0x3c57be00	0.013167858
18	0xbcba7604	-0.022761352
19	0xbda9b508	-0.08286482
20	0xbcdcf1f0	-0.026970834
21	0xbb10ee20	-0.002211459
22	0xbd61ca2a	-0.05512444
23	0x3d94261c	0.07233831
24	0xbcfb889e	-0.030704793
25	0x3c6a8c98	0.014315747
26	0xbd8b94ae	-0.06815468
27	0xbc96c210	-0.018403083
28	0xbcb0f7b0	-0.021602482
29	0x3d8f620a	0.07001121
30	0x3d8e63a4	0.06952599
31	0x3b9b8820	0.004746452
32	0x3d126378	0.035739392
33	0x3d1a92bc	0.037737593
34	0xbd922b82	-0.07137205
35	0xbd335083	-0.043777954
36	0x3d423cf4	0.04742141
37	0xbb3542c0	-0.0027658194
38	0xbd680cfc	-0.056653008
39	0x3d5e40f8	0.054261178
40	0xbd457715	-0.04820927
41	0x3d2ee4e8	0.04269877
42	0xbdb6bb66	-0.08922462
43	0xbcf5e0c2	-0.0300144
44	0xbce4c6f0	-0.027926892
45	0x3a306900	0.00067295134
46	0xbca99cd8	-0.020704672
47	0xbda7ae41	-0.08187533
48	0xbd827045	-0.0636907
49	0x3cf143f4	0.029451348
50	0x3daac3aa	0.08338101
51	0xbceddf28	-0.029037073
52	0x3c310608	0.010804661
53	0xbdb788f1	-0.089616664
54	0xbdb1da4f	-0.08684217
55	0xbdb77491	-0.0895778
56	0xb9446800	-0.0001873076
57	0x3c897ecc	0.016784094
58	0x3d5261e0	0.051362872
59	0x3ceaf13c	0.028679483
60	0x3d5f6750	0.054541886
61	0xbd93dbaf	-0.07219636
62	0x3da432a4	0.080174714
63	0xbd802db1	-0.06258715
64	0xbd9b0ada	-0.07570429
65	0x3d8720ee	0.06598078
66	0xbc1360b8	-0.0089952275
67	0x3b1a8420	0.0023577288
68	0x3d1fb368	0.038989455
69	0x3d057b76	0.032588445
70	0x3c02bc30	0.007979438
71	0x3d4d63f0	0.050144136
72	0x3ce6635c	0.02812355
73	0xbd70ea27	-0.058817055
74	0x3cf53db8	0.029936656
75	0x3bb2f900	0.005461812
76	0xbdba90f5	-0.091096796
77	0xbd2b9121	-0.041886453
78	0xbd9b1f5b	-0.0757434
79	0x3ca0b348	0.019616738
80	0xbd41ca30	-0.04731196
81	0x3d2347a8	0.03986326
82	0xbd0e8392	-0.034793444
83	0x3d3ae4a4	0.045628205
84	0xbd0ca95b	-0.034341197
85	0xbd55bad9	-0.052180145
86	0x3d6ea5a4	0.058263436
87	0x3d8c1726	0.06840353
88	0x3c9fc9ac	0.019505344
89	0xbd165ba9	-0.036708508
90	0xbd94de43	-0.072689556
91	0x3d84b900	0.064805984
92	0xbdb38141	-0.087648876
93	0xbd9ca2c9	-0.07648236
94	0x3d46be0c	0.048521087
95	0x3d8a7e10	0.06762326
96	0x3c809838	0.015697584
97	0x3d9669fe	0.07344435
98	0x3db62f8c	0.088957876
99	0x3d5d2728	0.05399242
100	0x3db79b34	0.089651495
101	0xbca78180	-0.020447493
102	0xbce29a98	-0.027661607
103	0xbd121fe9	-0.035674963
104	0xbc984294	-0.018586434
105	0xbc6b53b0	-0.014363214
106	0x3d851348	0.06497818
107	0xbd7760b8	-0.060394973
108	0x3b8ba7e0	0.0042619556
109	0xbc8a1cb4	-0.01685939
110	0x3cd6dd84	0.026228674
111	0x3c910764	0.01770372
112	0xbda26db3	-0.0793108
113	0xbd27b7c1	-0.040946726
114	0x3d01016c	0.031495497
115	0xbd33ccc1	-0.04389644
116	0x3d827d60	0.0637157
117	0x3d554dc4	0.052076116
118	0x3d905c32	0.07048835
119	0xbcfa44fa	-0.030550469
120	0xbdad95cf	-0.08475839
121	0xbc37da68	-0.011221506
122	0xbd06e0c8	-0.03292921
123	0x3da8773c	0.08225867
124	0x3d07c70e	0.033148818
125	0xbda11be2	-0.07866646
126	0x3cb4bee0	0.022063673
127	0xbd89473a	-0.067030385
128	0x3c9cd810	0.019145995
129	0xbd30f209	-0.043199573
130	0xbd8ac45c	-0.06775734
131	0x3d7b3f7c	0.06133984
132	0x3d6e6184	0.058198467
133	0x3cd5a050	0.02607742
134	0x3d1c3384	0.038135067
135	0x3bde2840	0.0067797005
136	0xbd7e9f9e	-0.06216394
137	0xbda81c0b	-0.08208474
138	0xbc167598	-0.00918331
139	0x3b4b62c0	0.0031034201
140	0x3d5acf38	0.053420275
141	0xbd791117	-0.060807314
142	0x3d8df01e	0.06930564
143	0x3d275c9c	0.040859804
144	0x3b6b49c0	0.0035902113
145	0xbda7fc38	-0.08202404
146	0x3d89598c	0.06706533
147	0x3d4d931c	0.050189123
148	0x3d018886	0.03162434
149	0xbd9c2cd5	-0.076257385
150	0xbc61e2e8	-0.013787009
151	0x3cf5e120	0.030014575
152	0xbd7d445f	-0.061832782
153	0x3d461cb8	0.048367232
154	0xbd9b04de	-0.07569288
155	0x3ca39b8c	0.019971631
156	0x3d34a678	0.04410407
157	0x3d81a4ce	0.06330262
158	0x3d0b9d88	0.03408578
159	0xbcd160f8	-0.025558934
160	0xbc158158	-0.009125076
161	0x3d7a70d4	0.061142758
162	0x3d806114	0.06268516
163	0xbd42d686	-0.047567867
164	0xbc3451e8	-0.011005856
165	0x3d356b48	0.044291764
166	0x3da5bb28	0.08092338
167	0xbc1e9ea8	-0.009681381
168	0x3c2d17c0	0.0105647445
169	0xbbc9beb0	-0.006156765
170	0xbc24f9f0	-0.010069355
171	0xbd6e8055	-0.058227856
172	0xbd82d953	-0.063891076
173	0x3cc6cbf4	0.024267174
174	0xbda74e08	-0.0816918
175	0xbd842aaa	-0.0645345
176	0x3b82bd50	0.003989853
177	0xbd09f8ad	-0.03368442
178	0xbcebc684	-0.028781183
179	0x3cb6beec	0.022307836
180	0x3cb8a3d8	0.022539064
181	0x3db977c4	0.090560466
182	0x3c655ce0	0.013999194
183	0xba130000	-0.0005607605
184	0x3d4a66a4	0.049414292
185	0xbd4e0e97	-0.050306883
186	0x3cc6c3d4	0.0242633
187	0x3d744db4	0.059644416
188	0xbcf07f4c	-0.029357575
189	0xbc34d530	-0.011037156
190	0xbd9d5866	-0.07682876
191	0xbdb09a85	-0.08623222
192	0xbccd3c20	-0.025053084
193	0x3d663a68	0.056208044
194	0x3d8b8588	0.068125784
195	0xbcb704f8	-0.022341236
196	0xbdb369c1	-0.08760405
197	0xbd5b14eb	-0.053486746
198	0xbd227fd9	-0.039672706
199	0xbd72d709	-0.059287105
200	0xbd5be167	-0.053681757
201	0x3d184a74	0.03718038
202	0x3d7a2e38	0.061079234
203	0x3ad30f00	0.0016102493
204	0xbdb31719	-0.0874464
205	0xbd95c07e	-0.073121056
206	0x3d2b2b04	0.04178907
207	0xbd8087a2	-0.0627587
208	0x3d37ea28	0.044901043
209	0x3c8bd9a8	0.01707156
210	0x3d55e890	0.052223742
211	0xbda25865	-0.07927016
212	0x3da694a6	0.08133821
213	0x3d6ec2b8	0.058291167
214	0x3c856bf0	0.01628682
215	0x3d1b62b0	0.037935913
216	0x3d781ccc	0.060574338
217	0x3cb85d98	0.022505566
218	0x3d4265c4	0.047460333
219	0x3c380c60	0.011233419
220	0x3d0fa50c	0.03506951
221	0xbc005288	-0.007832177
222	0xbdabe498	-0.0839321
223	0xbcc8f990	-0.024533063
224	0x3d3fdf80	0.046844006
225	0x3d31545c	0.043293342
226	0xbce0c298	-0.02743654
227	0x3da6c8a4	0.08143738
228	0x3d9d4542	0.076792255
229	0xbb604420	-0.0034220293
230	0x3d5bab0c	0.05362992
231	0xbcf9ab1e	-0.030477103
232	0xbd8e9dd7	-0.06963699
233	0xbc908610	-0.017642051
234	0x3dae380e	0.08506785
235	0xbd8533a3	-0.065039895
236	0x3db7686a	0.08955462
237	0xbcc87db0	-0.024473995
238	0x3cf52db0	0.029929012
239	0x3cf30bcc	0.029668711
240	0xbd55b986	-0.052178882
241	0xbcc430e8	-0.023949102
242	0xbd56fce5	-0.052487273
243	0xbb044f00	-0.002018869
244	0x3d911508	0.070840895
245	0xbd6e10f9	-0.058121655
246	0xbcea5390	-0.028604299
247	0x3d5fc6ec	0.054633066
248	0xbc3a8a30	-0.0113854855
249	0x3d67fde8	0.05663863
250	0xbcbcec68	-0.023061946
251	0xbb502ae0	-0.0031763837
252	0x3d58b6bc	0.052908644
253	0xbcb46b1c	-0.02202373
254	0xbce06e40	-0.027396321
255	0xbd47ba52	-0.048761673

fc2.bias f4 [84]
0	0x3d1ee630	0.038793743
1	0x3d293058	0.04130587
2	0xbd5940f2	-0.053040452
3	0xbd0e3a7c	-0.034723744
4	0x3db39b0c	0.08769807
5	0xbd22c473	-0.03973813
6	0xbbd36510	-0.0064512566
7	0xbcd22180	-0.02565074
8	0x3da0223a	0.07819028
9	0x3ca9aa90	0.020711213
10	0x3cb2eb94	0.021840848
11	0x3d342f64	0.043990508
12	0x3d8c470e	0.0684949
13	0x3c1ea388	0.009682544
14	0x3d1487e4	0.036262408
15	0x3dab7c22	0.08373286
16	0xbd297fb9	-0.04138157
17	0x3d372f74	0.04472299
18	0x3d875236	0.06607477
19	0xbc9a6070	-0.018844813
20	0xbcbb62f4	-0.022874333
21	0x3d215290	0.03938538
22	0x3d936fda	0.07199068
23	0x3cb2c800	0.021823883
24	0x3ca434c0	0.020044684
25	0x3d93d4f6	0.072183535
26	0x3d631708	0.055441886
27	0x3cabe9cc	0.020985506
28	0xbd8397fa	-0.064254716
29	0x3d2faec0	0.042891264
30	0xbd0cc75b	-0.034369808
31	0x3d0fd1d0	0.035112202
32	0xb9b1ac00	-0.0003388822
33	0x3d91dc42	0.07122089
34	0xbd15daa6	-0.036585473
35	0xbc0d3780	-0.008619189
36	0x3ccd3458	0.025049374
37	0xbd14e914	-0.036355093
38	0xbd84626a	-0.064640835
39	0xbd0c0c72	-0.034191556
40	0x3a49b780	0.0007694885
41	0xbc0b0fe8	-0.008487679
42	0xbd30d5fd	-0.043172825
43	0x3d543508	0.051808387
44	0x3db5579e	0.08854602
45	0xbcbd916c	-0.023140632
46	0x3d5dbc5c	0.05413471
47	0xbd41b340	-0.047290087
48	0xbdbad8f7	-0.09123414
49	0xbd221296	-0.039568506
50	0x3d235e20	0.039884686
51	0xbb5401a0	-0.0032349601
52	0xbd841b08	-0.06450468
53	0x3d4b4b30	0.04963225
54	0x3d97d164	0.07412985
55	0xbb6452a0	-0.0034839287
56	0xbc88879c	-0.016666226
57	0x3da54b90	0.08071053
58	0x3d6b26ec	0.057410166
59	0xbd115243	-0.03547884
60	0x3d319280	0.043352604
61	0x3ce98bd8	0.028509066
62	0x3d592e7c	0.053022847
63	0x3b4e5f80	0.0031490028
64	0x3c283708	0.010267027
65	0x3d85ab0e	0.06526767
66	0x3ca8df94	0.020614423
67	0xbd89e07c	-0.0673227
68	0xbd82f8a3	-0.0639508
69	0x3b809390	0.003923841
70	0xbd49c739	-0.04926226
71	0x3d2d0e5c	0.042250022
72	0xbd9e4241	-0.07727481
73	0x3d0be518	0.034154028
74	0xbcd15454	-0.025552906
75	0x3db3b576	0.08774845
76	0x3d88a1a6	0.06671457
77	0x3ca7cee4	0.020484395
78	0xbd83b62f	-0.06431233
79	0x3d99c95a	0.07509108
80	0xbc84aaf8	-0.016194806
81	0x3d25c69c	0.04047261
82	0x3ca03cc4	0.019560225
83	0xbd16f3fc	-0.036853775

fc3.weight f4 [10, 84]
0	0x3d9a3485	0.075295486
1	0xbd6cca76	-0.05781027
2	0x3d90c2fb	0.070684396
3	0xbd9cb68c	-0.076520056
4	0xbd97f8bc	-0.07420489
5	0xbc47b0e0	-0.012188166
6	0x3ce47244	0.027886517
7	0x3dcd3e73	0.10021677
8	0x3dbe5923	0.09294345
9	0xbcf57c38	-0.029966459
10	0x3dc865cd	0.09785042
11	0xbcd66cd4	-0.02617494
12	0xbcd73c58	-0.026273891
13	0x3d9c9425	0.07645444
14	0x3c87721c	0.016533904
15	0x3c083d58	0.008315407
16	0x3d0bd54a	0.034138955
17	0x3d4176aa	0.047232307
18	0xbce4f730	-0.0279499
19	0x3d66561e	0.05623447
20	0xbd60ba1f	-0.054865
21	0xbcfed2fc	-0.031106465
22	0xbd4e6b7b	-0.05039547
23	0xbcdec208	-0.02719213
24	0x3daeb65d	0.08530877
25	0x3d1472d6	0.03624233
26	0x3d66e31a	0.056368925
27	0xbcd5c8f8	-0.026096806
28	0x3d8558ef	0.06511103
29	0x3d9d62b5	0.076848425
30	0x3dd8eabf	0.10591649
31	0x3dc2565f	0.0948913
32	0xbdda1779	-0.10649008
33	0x3c520530	0.01281862
34	0xbb968170	-0.004593067
35	0x3da65099	0.081208415
36	0x3da501b5	0.08056966
37	0x3ca173a4	0.019708462
38	0xbdc1d2c6	-0.0946403
39	0xbdbb321c	-0.09140417
40	0xbdce0546	-0.100595996
41	0xbdca8da7	-0.09890299
42	0xbdb8c375	-0.090216555
43	0x3d39e6ee	0.045386247
44	0xbd5c2d1f	-0.05375397
45	0x3da85f05	0.082212485
46	0x3bbfb470	0.0058503672
47	0x3d214f82	0.039382465
48	0x3d53057e	0.05151891
49	0x3d589bb6	0.052882873
50	0xbc15dcc8	-0.009146877
51	0xbcbadadc	-0.022809438
52	0x3ce80a04	0.028325088
53	0xbc832484	-0.016008623
54	0x3c8741cc	0.016510867
55	0x3da1bdf7	0.07897561
56	0xbd311d96	-0.043241106
57	0x3d526e1e	0.051374547
58	0x3d8a9e6d	0.067684986
59	0xbd6a6a90	-0.057230532
60	0x3dd8a3a5	0.10578088
61	0x3dc19b6f	0.09453475
62	0xbc84819c	-0.016175084
63	0x3d7b2d5e	0.061322562
64	0x3d6856a6	0.05672326
65	0x3c8e7b24	0.017392702
66	0x3d9e55e5	0.07731227
67	0x3d8fe9b9	0.07027001
68	0xbcdfc550	-0.027315766
69	0xbd07f3a0	-0.033191323
70	0xbd95d8ae	-0.07316719
71	0xbdcf7969	-0.10130579
72	0xbd1b1f12	-0.037871428
73	0xbd1cb3c2	-0.038257368
74	0xbd11ef18	-0.03562841
75	0xbdca0653	-0.098644875
76	0xbd47a27f	-0.048738953
77	0x3ad4ce00	0.0016235709
78	0xbbed57f0	-0.007243149
79	0xbd6c8186	-0.05774071
80	0xbb8cc7e0	-0.004296288
81	0xbc43d848	-0.011953421
82	0xbc6dc390	-0.014511958
83	0xbc23c608	-0.009995945
84	0x3d49c33e	0.049258463
85	0xbc31ecb0	-0.010859653
86	0x3da267c3	0.07929947
87	0x3dd0d35d	0.10196564
88	0xbdd8547d	-0.1056299
89	0xbcabbd3c	-0.020964257
90	0x3c5bcd70	0.013415679
91	0xbdc0bb8b	-0.09410771
92	0xbdb69c9e	-0.08916591
93	0xbcb82708	-0.022479549
94	0x3dd1c30b	0.102422796
95	0x3db6a489	0.08918101
96	0x3d1ff14a	0.03904847
97	0x3d9cac35	0.076500334
98	0x3da322fb	0.07965656
99	0x3dd73b69	0.105093785
100	0x3db1ea81	0.08687306
101	0xbc2c3e18	-0.010512851
102	0x3d8cfc5d	0.06884072
103	0x3d9dea55	0.07710711
104	0x3d517d86	0.0511451
105	0xbdd3cc13	-0.103416584
106	0xbd51da2a	-0.051233448
107	0xbd8d5a14	-0.06901947
108	0xbdd2355d	-0.102640845
109	0xbd09d148	-0.03364685
110	0xbda19204	-0.078891784
111	0x3d2b5efe	0.04183864
112	0x3dce563f	0.10075044
113	0xbd21f9a0	-0.0395447
114	0x3d7d2bda	0.0618094
115	0x3cc9423c	0.024567716
116	0xbd491fe3	-0.049102675
117	0x3dde76a7	0.10862475
118	0xbc383f88	-0.011245616
119	0x3c265e58	0.010154329
120	0x3dbceec3	0.09225228
121	0x3c925e04	0.017867096
122	0xbccb501c	-0.024818473
123	0x3d23973a	0.039939143
124	0xbd872cac	-0.06600317
125	0xbdd65966	-0.1046627
126	0x3cd1e6f4	0.025622822
127	0x3db2cc4f	0.08730375
128	0x3ddcba21	0.10777689
129	0x3d855e89	0.06512172
130	0x3dbadf05	0.09124569
131	0xbb1c0ee0	-0.0023812577
132	0xbd4c3ced	-0.04986279
133	0x3da84b41	0.082174785
134	0x3bcff990	0.006346889
135	0xbca47560	-0.0200755
136	0xbc8b84c8	-0.017031088
137	0x3d854489	0.06507213
138	0xbbbdaf10	-0.0057886913
139	0x3dc54819	0.09632892
140	0x3d3bca4e	0.04584723
141	0xbdda255b	-0.10651656
142	0xbd5660e6	-0.052338503
143	0xbc258aa0	-0.010103852
144	0xbd8ac0a0	-0.067750216
145	0x3cb00b6c	0.021489821
146	0x3da6e61f	0.08149361
147	0xbd50d7cf	-0.05098706
148	0x3dd8d465	0.10587386
149	0xbcea3554	-0.028589882
150	0x3da7759b	0.08176728
151	0xbd1ac886	-0.03778889
152	0xbd9e3a98	-0.077260196
153	0x3db65317	0.08902567
154	0xbd6afa62	-0.05736769
155	0x3d86ac37	0.06575816
156	0xbd5672dd	-0.052355636
157	0xbcc96ef8	-0.024589047
158	0x3d7705f2	0.060308404
159	0x3d5df716	0.054190718
160	0xbdba1f4e	-0.09088002
161	0x3c0c6f90	0.00857152
162	0xbd611093	-0.054947447
163	0xbd09222c	-0.033479854
164	0x3c93a4b4	0.018022873
165	0xbdad4f9b	-0.08462449
166	0xbd192cf0	-0.03739637
167	0x3c1643e0	0.009171456
168	0xbdac0402	-0.08399202
169	0xbc4b5550	-0.012410477
170	0x3d8f0125	0.0698264
171	0x3d5ad16e	0.053422384
172	0x3d91a897	0.07112234
173	0xbd51b5fb	-0.05119894
174	0x3dca9a11	0.09892667
175	0x3d36291a	0.04447279
176	0x3dcd60b3	0.100282095
177	0xbd98d352	-0.07462181
178	0xbdced4e5	-0.100992
179	0x3cd811dc	0.026375704
180	0xbd80fbae	-0.06298004
181	0xbbf05570	-0.0073344037
182	0xbd8da6b2	-0.0691656
183	0x3d25a912	0.04044444
184	0xbb2d95a0	-0.0026486889
185	0x3b6507e0	0.003494732
186	0xbd9922d3	-0.07477345
187	0xbd180cdc	-0.03712164
188	0xbd7dfec1	-0.06201053
189	0xbd573a3f	-0.052545782
190	0x3b3d5d80	0.0028894842
191	0x3dc0babd	0.094106175
192	0xbcf6beb0	-0.030120224
193	0xbd86bcd6	-0.06578986
194	0xbd7eb707	-0.062186267
195	0x3d99eea5	0.07516221
196	0xbda5242e	-0.08063541
197	0x3da55d87	0.080744796
198	0xbd045b98	-0.032313913
199	0x3d492776	0.0491099
200	0x3d93b0c3	0.07211449
201	0xbd5ce440	-0.053928614
202	0xbd8ed7bc	-0.06974742
203	0x3dd7b913	0.10533347
204	0x3c2168a8	0.009851612
205	0x3c86446c	0.016390048
206	0xbd048100	-0.032349586
207	0xbdc97084	-0.09835914
208	0xbd559c26	-0.052150868
209	0x3dde2cd3	0.10848393
210	0x3cf05d54	0.029341377
211	0x3c1be190	0.0095142275
212	0x3d723a4e	0.059137635
213	0x3dd03027	0.10165434
214	0xbd8e0d2a	-0.069361046
215	0x3d59ed7a	0.05320499
216	0x3dc58ab3	0.096455954
217	0xbc1dc108	-0.009628542
218	0xbb6a0560	-0.003570877
219	0xbd48eeaa	-0.049055733
220	0x3d4850a2	0.048905022
221	0xbda35144	-0.079744846
222	0xbd0b83ca	-0.03406123
223	0xbd93250f	-0.07184803
224	0x3d8b4785	0.06800751
225	0x3d02fefe	0.03198146
226	0x3dab5967	0.083666615
227	0xbdad129f	-0.08450817
228	0x3d71eede	0.059065692
229	0x3d41c80a	0.047309913
230	0x3dc1645b	0.094429694
231	0x3d9efe75	0.077633776
232	0xbc420998	-0.011843108
233	0xbdc7f017	-0.097625904
234	0xbbc54320	-0.006019965
235	0xbcfbc0c4	-0.030731566
236	0x3cea30f4	0.028587796
237	0xbd0a21d4	-0.033723667
238	0xbb2d5d20	-0.0026453212
239	0xbd58e02f	-0.052948173
240	0x3cfbe70c	0.03074982
241	0xbd867516	-0.06565301
242	0x3dd6b1e9	0.104831524
243	0xbbc88120	-0.0061189085
244	0x3d67942a	0.056537785
245	0xbd95c704	-0.0731335
246	0x3ddb6327	0.10712271
247	0xbb33c320	-0.0027429536
248	0x3c0c5468	0.008565046
249	0xbd5490f8	-0.051896065
250	0xbb303140	-0.0026884824
251	0xbdd14975	-0.10219089
252	0xbdc1bc82	-0.09459783
253	0xbdd3b789	-0.10337741
254	0xbd9f863d	-0.07789276
255	0xb9eee100	-0.00045562536

fc3.bias f4 [10]
0	0x3d3c36c6	0.045950674
1	0x3c8885ec	0.016665421
2	0x3d2645ee	0.040594034
3	0xbd8c57cc	-0.068526834
4	0xbbd814f0	-0.006594293
5	0xbd192292	-0.037386484
6	0x3d9708d7	0.07374733
7	0xbd68fb46	-0.056880258
8	0xbd291714	-0.041281775
9	0x3d8fc851	0.07020629
